[15:01:45] DeepAR.Train: Loading the datasets...
[15:31:18] DeepAR.Train: Loading the datasets...
[15:31:18] DeepAR.Data: train_len: 700
[15:31:18] DeepAR.Data: building datasets from data\infant...
[15:31:18] DeepAR.Data: test_len: 75
[15:31:18] DeepAR.Data: building datasets from data\infant...
[15:31:18] DeepAR.Train: Loading complete.
[15:31:18] DeepAR.Train: Model: 
Net(
  (embedding): Embedding(25, 20)
  (lstm): LSTM(24, 20, num_layers=3, dropout=0.1)
  (relu): ReLU()
  (distribution_mu): Linear(in_features=60, out_features=1, bias=True)
  (distribution_presigma): Linear(in_features=60, out_features=1, bias=True)
  (distribution_sigma): Softplus(beta=1, threshold=20)
)
[15:31:18] DeepAR.Train: Starting training for 20 epoch(s)
[15:31:18] DeepAR.Train: begin training and evaluation
[15:31:18] DeepAR.Train: Epoch 1/20
[15:39:15] DeepAR.Train: Loading the datasets...
[15:39:15] DeepAR.Data: train_len: 700
[15:39:15] DeepAR.Data: building datasets from data\infant...
[15:39:15] DeepAR.Data: test_len: 75
[15:39:15] DeepAR.Data: building datasets from data\infant...
[15:39:15] DeepAR.Train: Loading complete.
[15:39:15] DeepAR.Train: Model: 
Net(
  (embedding): Embedding(25, 20)
  (lstm): LSTM(24, 20, num_layers=3, dropout=0.1)
  (relu): ReLU()
  (distribution_mu): Linear(in_features=60, out_features=1, bias=True)
  (distribution_presigma): Linear(in_features=60, out_features=1, bias=True)
  (distribution_sigma): Softplus(beta=1, threshold=20)
)
[15:39:15] DeepAR.Train: Starting training for 20 epoch(s)
[15:39:15] DeepAR.Train: begin training and evaluation
[15:39:15] DeepAR.Train: Epoch 1/20
[16:44:40] DeepAR.Train: Loading the datasets...
[16:44:40] DeepAR.Data: train_len: 700
[16:44:40] DeepAR.Data: building datasets from data\infant...
[16:44:40] DeepAR.Data: test_len: 75
[16:44:40] DeepAR.Data: building datasets from data\infant...
[16:44:40] DeepAR.Train: Loading complete.
[16:44:40] DeepAR.Train: Model: 
Net(
  (embedding): Embedding(25, 20)
  (lstm): LSTM(24, 20, num_layers=3, dropout=0.1)
  (relu): ReLU()
  (distribution_mu): Linear(in_features=60, out_features=1, bias=True)
  (distribution_presigma): Linear(in_features=60, out_features=1, bias=True)
  (distribution_sigma): Softplus(beta=1, threshold=20)
)
[16:44:40] DeepAR.Train: Starting training for 20 epoch(s)
[16:44:40] DeepAR.Train: begin training and evaluation
[16:44:40] DeepAR.Train: Epoch 1/20
[16:53:31] DeepAR.Train: Loading the datasets...
[16:53:31] DeepAR.Data: train_len: 700
[16:53:31] DeepAR.Data: building datasets from data\infant...
[16:53:31] DeepAR.Data: test_len: 75
[16:53:31] DeepAR.Data: building datasets from data\infant...
[16:53:31] DeepAR.Train: Loading complete.
[16:53:31] DeepAR.Train: Model: 
Net(
  (embedding): Embedding(25, 20)
  (lstm): LSTM(23, 20, num_layers=3, dropout=0.1)
  (relu): ReLU()
  (distribution_mu): Linear(in_features=60, out_features=1, bias=True)
  (distribution_presigma): Linear(in_features=60, out_features=1, bias=True)
  (distribution_sigma): Softplus(beta=1, threshold=20)
)
[16:53:31] DeepAR.Train: Starting training for 20 epoch(s)
[16:53:31] DeepAR.Train: begin training and evaluation
[16:53:31] DeepAR.Train: Epoch 1/20
[16:54:07] DeepAR.Train: train_loss: 2.442659378051758
[16:54:07] DeepAR.Train: train_loss: 2.442659378051758
[16:56:07] DeepAR.Eval: - Full test metrics: ND: 0.750; RMSE: 1.445; test_loss: 5.314; rou90: 0.241; rou50: 0.749
…
